…
You are running baselines.chac with just a single MPI worker. This will work, but the HER experiments that we report in Plappert et al. (2018, https://arxiv.org/abs/1802.09464) were obtained with --num_cpu 19. This makes a significant difference and if you are looking to reproduce those results, be aware of this. Please also refer to https://github.com/openai/baselines/issues/314 for further details.
****************

dims: action = 8, subgoal = 5, end_goal = 3
subgoal_bounds: symmetric [8.  8.  0.5 3.  3. ], offset [0.  0.  0.5 0.  0. ]
Running on CPU ...
Creating a CHAC agent

Hierarchy Level 0 with time scale 27
Actor(
  (fc1): Linear(in_features=34, out_features=64, bias=True)
  (fc2): Linear(in_features=64, out_features=64, bias=True)
  (fc3): Linear(in_features=64, out_features=64, bias=True)
  (fc4): Linear(in_features=64, out_features=8, bias=True)
)
Critic(
  (fc1): Linear(in_features=42, out_features=64, bias=True)
  (fc2): Linear(in_features=64, out_features=64, bias=True)
  (fc3): Linear(in_features=64, out_features=64, bias=True)
  (fc4): Linear(in_features=64, out_features=1, bias=True)
  (mse_loss): MSELoss()
)
ForwardModel(
  (mlp): Sequential(
    (0): Linear(in_features=37, out_features=256, bias=True)
    (1): ReLU()
    (2): Linear(in_features=256, out_features=256, bias=True)
    (3): ReLU()
    (4): Linear(in_features=256, out_features=256, bias=True)
    (5): ReLU()
    (6): Linear(in_features=256, out_features=29, bias=True)
    (7): Identity()
  )
  (mse_loss): MSELoss()
)

Hierarchy Level 1 with time scale 27
Actor(
  (fc1): Linear(in_features=32, out_features=64, bias=True)
  (fc2): Linear(in_features=64, out_features=64, bias=True)
  (fc3): Linear(in_features=64, out_features=64, bias=True)
  (fc4): Linear(in_features=64, out_features=5, bias=True)
)
Critic(
  (fc1): Linear(in_features=37, out_features=64, bias=True)
  (fc2): Linear(in_features=64, out_features=64, bias=True)
  (fc3): Linear(in_features=64, out_features=64, bias=True)
  (fc4): Linear(in_features=64, out_features=1, bias=True)
  (mse_loss): MSELoss()
)
ForwardModel(
  (mlp): Sequential(
    (0): Linear(in_features=34, out_features=256, bias=True)
    (1): ReLU()
    (2): Linear(in_features=256, out_features=256, bias=True)
    (3): ReLU()
    (4): Linear(in_features=256, out_features=256, bias=True)
    (5): ReLU()
    (6): Linear(in_features=256, out_features=29, bias=True)
    (7): Identity()
  )
  (mse_loss): MSELoss()
)
Training epoch 0
Time for epoch 0: 0.00. Rollout time: 0.00, Training time: 0.00
Evaluating epoch 0
