…
mu_hidden_size: 64
mu_lr: 0.001
n_episodes: 100
n_levels: 2
n_pre_episodes: 30
n_test_rollouts: 25
n_train_batches: 40
n_train_rollouts: 100
num_threads: 1
q_hidden_size: 64
q_lr: 0.001
random_action_perc: 0.3
render: 0
rollout_batch_size: 1
subgoal_noise: 0.2
subgoal_test_perc: 0.3
time_scales: 27,27
try_start_idx: 100
use_mpi: False
verbose: False
dims: action = 3, subgoal = 6, end_goal = 3
subgoal_bounds: symmetric [6.28318531 6.28318531 6.28318531 4.         4.         4.        ], offset [0. 0. 0. 0. 0. 0.]
Running on CPU ...
Creating a CHAC agent

Hierarchy Level 0 with time scale 27
Actor(
  (fc1): Linear(in_features=12, out_features=64, bias=True)
  (fc2): Linear(in_features=64, out_features=64, bias=True)
  (fc3): Linear(in_features=64, out_features=64, bias=True)
  (fc4): Linear(in_features=64, out_features=3, bias=True)
)
Critic(
  (fc1): Linear(in_features=15, out_features=64, bias=True)
  (fc2): Linear(in_features=64, out_features=64, bias=True)
  (fc3): Linear(in_features=64, out_features=64, bias=True)
  (fc4): Linear(in_features=64, out_features=1, bias=True)
  (mse_loss): MSELoss()
)
ForwardModel(
  (mlp): Sequential(
    (0): Linear(in_features=9, out_features=256, bias=True)
    (1): ReLU()
    (2): Linear(in_features=256, out_features=256, bias=True)
    (3): ReLU()
    (4): Linear(in_features=256, out_features=256, bias=True)
    (5): ReLU()
    (6): Linear(in_features=256, out_features=6, bias=True)
    (7): Identity()
  )
  (mse_loss): MSELoss()
)

Hierarchy Level 1 with time scale 27
Actor(
  (fc1): Linear(in_features=9, out_features=64, bias=True)
  (fc2): Linear(in_features=64, out_features=64, bias=True)
  (fc3): Linear(in_features=64, out_features=64, bias=True)
  (fc4): Linear(in_features=64, out_features=6, bias=True)
)
Critic(
  (fc1): Linear(in_features=15, out_features=64, bias=True)
  (fc2): Linear(in_features=64, out_features=64, bias=True)
  (fc3): Linear(in_features=64, out_features=64, bias=True)
  (fc4): Linear(in_features=64, out_features=1, bias=True)
  (mse_loss): MSELoss()
)
ForwardModel(
  (mlp): Sequential(
    (0): Linear(in_features=12, out_features=256, bias=True)
    (1): ReLU()
    (2): Linear(in_features=256, out_features=256, bias=True)
    (3): ReLU()
    (4): Linear(in_features=256, out_features=256, bias=True)
    (5): ReLU()
    (6): Linear(in_features=256, out_features=6, bias=True)
    (7): Identity()
  )
  (mse_loss): MSELoss()
)
Training epoch 0
